…
transformer.resblocks.11.mlp.c_fc  :  Linear(in_features=512, out_features=2048, bias=True)
- torch.float16
transformer.resblocks.11.mlp.c_proj  :  Linear(in_features=2048, out_features=512, bias=True)
- torch.float16
transformer.resblocks.11.ln_2  :  LayerNorm((512,), eps=1e-05, elementwise_affine=True)
- torch.float32
token_embedding  :  Embedding(49408, 512)
- torch.float32
ln_final  :  LayerNorm((512,), eps=1e-05, elementwise_affine=True)
- torch.float32
model=model=model=model=model=model=model=model=model=model=model=model=model=model=model=model=model=model=model=model=
CLIP(
  (visual): ResNet(
    (conv1): Conv2d(3, 64, kernel_size=(7, 7), stride=(2, 2), padding=(3, 3), bias=False)
    (bn1): BatchNorm2d(64, eps=1e-05, momentum=0.1, affine=True, track_running_stats=True)
    (relu): ReLU(inplace=True)
    (maxpool): MaxPool2d(kernel_size=3, stride=2, padding=1, dilation=1, ceil_mode=False)
    (layer1): Sequential(
      (0): Bottleneck(
        (conv1): Action(
          (net): Conv2d(64, 64, kernel_size=(1, 1), stride=(1, 1), bias=False)
          (avg_pool): AdaptiveAvgPool2d(output_size=1)
          (relu): ReLU(inplace=True)
          (sigmoid): Sigmoid()
          (action_shift): Conv1d(64, 64, kernel_size=(3,), stride=(1,), padding=(1,), groups=64, bias=False)
          (action_p1_conv1): Conv3d(1, 1, kernel_size=(3, 3, 3), stride=(1, 1, 1), padding=(1, 1, 1), bias=False)
          (action_p2_squeeze): Conv2d(64, 4, kernel_size=(1, 1), stride=(1, 1), bias=False)
          (action_p2_conv1): Conv1d(4, 4, kernel_size=(3,), stride=(1,), padding=(1,), bias=False)
          (action_p2_expand): Conv2d(4, 64, kernel_size=(1, 1), stride=(1, 1), bias=False)
          (action_p3_squeeze): Conv2d(64, 4, kernel_size=(1, 1), stride=(1, 1), bias=False)
          (action_p3_bn1): BatchNorm2d(4, eps=1e-05, momentum=0.1, affine=True, track_running_stats=True)
          (action_p3_conv1): Conv2d(4, 4, kernel_size=(3, 3), stride=(1, 1), padding=(1, 1), groups=4, bias=False)
          (action_p3_expand): Conv2d(4, 64, kernel_size=(1, 1), stride=(1, 1), bias=False)
        )
        (bn1): BatchNorm2d(64, eps=1e-05, momentum=0.1, affine=True, track_running_stats=True)
        (conv2): Conv2d(64, 64, kernel_size=(3, 3), stride=(1, 1), padding=(1, 1), bias=False)
        (bn2): BatchNorm2d(64, eps=1e-05, momentum=0.1, affine=True, track_running_stats=True)
        (conv3): Conv2d(64, 256, kernel_size=(1, 1), stride=(1, 1), bias=False)
        (bn3): BatchNorm2d(256, eps=1e-05, momentum=0.1, affine=True, track_running_stats=True)
        (relu): ReLU(inplace=True)
        (downsample): Sequential(
          (0): Conv2d(64, 256, kernel_size=(1, 1), stride=(1, 1), bias=False)
          (1): BatchNorm2d(256, eps=1e-05, momentum=0.1, affine=True, track_running_stats=True)
        )
      )
      (1): Bottleneck(
        (conv1): Action(
          (net): Conv2d(256, 64, kernel_size=(1, 1), stride=(1, 1), bias=False)
          (avg_pool): AdaptiveAvgPool2d(output_size=1)
          (relu): ReLU(inplace=True)
          (sigmoid): Sigmoid()
          (action_shift): Conv1d(256, 256, kernel_size=(3,), stride=(1,), padding=(1,), groups=256, bias=False)
          (action_p1_conv1): Conv3d(1, 1, kernel_size=(3, 3, 3), stride=(1, 1, 1), padding=(1, 1, 1), bias=False)
          (action_p2_squeeze): Conv2d(256, 16, kernel_size=(1, 1), stride=(1, 1), bias=False)
          (action_p2_conv1): Conv1d(16, 16, kernel_size=(3,), stride=(1,), padding=(1,), bias=False)
          (action_p2_expand): Conv2d(16, 256, kernel_size=(1, 1), stride=(1, 1), bias=False)
          (action_p3_squeeze): Conv2d(256, 16, kernel_size=(1, 1), stride=(1, 1), bias=False)
          (action_p3_bn1): BatchNorm2d(16, eps=1e-05, momentum=0.1, affine=True, track_running_stats=True)
          (action_p3_conv1): Conv2d(16, 16, kernel_size=(3, 3), stride=(1, 1), padding=(1, 1), groups=16, bias=False)
          (action_p3_expand): Conv2d(16, 256, kernel_size=(1, 1), stride=(1, 1), bias=False)
        )
        (bn1): BatchNorm2d(64, eps=1e-05, momentum=0.1, affine=True, track_running_stats=True)
        (conv2): Conv2d(64, 64, kernel_size=(3, 3), stride=(1, 1), padding=(1, 1), bias=False)
        (bn2): BatchNorm2d(64, eps=1e-05, momentum=0.1, affine=True, track_running_stats=True)
        (conv3): Conv2d(64, 256, kernel_size=(1, 1), stride=(1, 1), bias=False)
        (bn3): BatchNorm2d(256, eps=1e-05, momentum=0.1, affine=True, track_running_stats=True)
        (relu): ReLU(inplace=True)
      )
      (2): Bottleneck(
        (conv1): Action(
          (net): Conv2d(256, 64, kernel_size=(1, 1), stride=(1, 1), bias=False)
          (avg_pool): AdaptiveAvgPool2d(output_size=1)
          (relu): ReLU(inplace=True)
          (sigmoid): Sigmoid()
          (action_shift): Conv1d(256, 256, kernel_size=(3,), stride=(1,), padding=(1,), groups=256, bias=False)
          (action_p1_conv1): Conv3d(1, 1, kernel_size=(3, 3, 3), stride=(1, 1, 1), padding=(1, 1, 1), bias=False)
          (action_p2_squeeze): Conv2d(256, 16, kernel_size=(1, 1), stride=(1, 1), bias=False)
          (action_p2_conv1): Conv1d(16, 16, kernel_size=(3,), stride=(1,), padding=(1,), bias=False)
          (action_p2_expand): Conv2d(16, 256, kernel_size=(1, 1), stride=(1, 1), bias=False)
          (action_p3_squeeze): Conv2d(256, 16, kernel_size=(1, 1), stride=(1, 1), bias=False)
          (action_p3_bn1): BatchNorm2d(16, eps=1e-05, momentum=0.1, affine=True, track_running_stats=True)
          (action_p3_conv1): Conv2d(16, 16, kernel_size=(3, 3), stride=(1, 1), padding=(1, 1), groups=16, bias=False)
          (action_p3_expand): Conv2d(16, 256, kernel_size=(1, 1), stride=(1, 1), bias=False)
        )
        (bn1): BatchNorm2d(64, eps=1e-05, momentum=0.1, affine=True, track_running_stats=True)
        (conv2): Conv2d(64, 64, kernel_size=(3, 3), stride=(1, 1), padding=(1, 1), bias=False)
        (bn2): BatchNorm2d(64, eps=1e-05, momentum=0.1, affine=True, track_running_stats=True)
        (conv3): Conv2d(64, 256, kernel_size=(1, 1), stride=(1, 1), bias=False)
        (bn3): BatchNorm2d(256, eps=1e-05, momentum=0.1, affine=True, track_running_stats=True)
        (relu): ReLU(inplace=True)
      )
    )
    (layer2): Sequential(
      (0): Bottleneck(
        (conv1): Action(
          (net): Conv2d(256, 128, kernel_size=(1, 1), stride=(1, 1), bias=False)
          (avg_pool): AdaptiveAvgPool2d(output_size=1)
          (relu): ReLU(inplace=True)
          (sigmoid): Sigmoid()
          (action_shift): Conv1d(256, 256, kernel_size=(3,), stride=(1,), padding=(1,), groups=256, bias=False)
          (action_p1_conv1): Conv3d(1, 1, kernel_size=(3, 3, 3), stride=(1, 1, 1), padding=(1, 1, 1), bias=False)
          (action_p2_squeeze): Conv2d(256, 16, kernel_size=(1, 1), stride=(1, 1), bias=False)
          (action_p2_conv1): Conv1d(16, 16, kernel_size=(3,), stride=(1,), padding=(1,), bias=False)
          (action_p2_expand): Conv2d(16, 256, kernel_size=(1, 1), stride=(1, 1), bias=False)
          (action_p3_squeeze): Conv2d(256, 16, kernel_size=(1, 1), stride=(1, 1), bias=False)
          (action_p3_bn1): BatchNorm2d(16, eps=1e-05, momentum=0.1, affine=True, track_running_stats=True)
          (action_p3_conv1): Conv2d(16, 16, kernel_size=(3, 3), stride=(1, 1), padding=(1, 1), groups=16, bias=False)
          (action_p3_expand): Conv2d(16, 256, kernel_size=(1, 1), stride=(1, 1), bias=False)
        )
        (bn1): BatchNorm2d(128, eps=1e-05, momentum=0.1, affine=True, track_running_stats=True)
        (conv2): Conv2d(128, 128, kernel_size=(3, 3), stride=(2, 2), padding=(1, 1), bias=False)
        (bn2): BatchNorm2d(128, eps=1e-05, momentum=0.1, affine=True, track_running_stats=True)
        (conv3): Conv2d(128, 512, kernel_size=(1, 1), stride=(1, 1), bias=False)
        (bn3): BatchNorm2d(512, eps=1e-05, momentum=0.1, affine=True, track_running_stats=True)
        (relu): ReLU(inplace=True)
        (downsample): Sequential(
          (0): Conv2d(256, 512, kernel_size=(1, 1), stride=(2, 2), bias=False)
          (1): BatchNorm2d(512, eps=1e-05, momentum=0.1, affine=True, track_running_stats=True)
        )
      )
      (1): Bottleneck(
        (conv1): Action(
          (net): Conv2d(512, 128, kernel_size=(1, 1), stride=(1, 1), bias=False)
          (avg_pool): AdaptiveAvgPool2d(output_size=1)
          (relu): ReLU(inplace=True)
          (sigmoid): Sigmoid()
          (action_shift): Conv1d(512, 512, kernel_size=(3,), stride=(1,), padding=(1,), groups=512, bias=False)
          (action_p1_conv1): Conv3d(1, 1, kernel_size=(3, 3, 3), stride=(1, 1, 1), padding=(1, 1, 1), bias=False)
          (action_p2_squeeze): Conv2d(512, 32, kernel_size=(1, 1), stride=(1, 1), bias=False)
          (action_p2_conv1): Conv1d(32, 32, kernel_size=(3,), stride=(1,), padding=(1,), bias=False)
          (action_p2_expand): Conv2d(32, 512, kernel_size=(1, 1), stride=(1, 1), bias=False)
          (action_p3_squeeze): Conv2d(512, 32, kernel_size=(1, 1), stride=(1, 1), bias=False)
          (action_p3_bn1): BatchNorm2d(32, eps=1e-05, momentum=0.1, affine=True, track_running_stats=True)
          (action_p3_conv1): Conv2d(32, 32, kernel_size=(3, 3), stride=(1, 1), padding=(1, 1), groups=32, bias=False)
          (action_p3_expand): Conv2d(32, 512, kernel_size=(1, 1), stride=(1, 1), bias=False)
        )
        (bn1): BatchNorm2d(128, eps=1e-05, momentum=0.1, affine=True, track_running_stats=True)
        (conv2): Conv2d(128, 128, kernel_size=(3, 3), stride=(1, 1), padding=(1, 1), bias=False)
        (bn2): BatchNorm2d(128, eps=1e-05, momentum=0.1, affine=True, track_running_stats=True)
        (conv3): Conv2d(128, 512, kernel_size=(1, 1), stride=(1, 1), bias=False)
        (bn3): BatchNorm2d(512, eps=1e-05, momentum=0.1, affine=True, track_running_stats=True)
        (relu): ReLU(inplace=True)
      )
      (2): Bottleneck(
        (conv1): Action(
          (net): Conv2d(512, 128, kernel_size=(1, 1), stride=(1, 1), bias=False)
          (avg_pool): AdaptiveAvgPool2d(output_size=1)
          (relu): ReLU(inplace=True)
          (sigmoid): Sigmoid()
          (action_shift): Conv1d(512, 512, kernel_size=(3,), stride=(1,), padding=(1,), groups=512, bias=False)
          (action_p1_conv1): Conv3d(1, 1, kernel_size=(3, 3, 3), stride=(1, 1, 1), padding=(1, 1, 1), bias=False)
          (action_p2_squeeze): Conv2d(512, 32, kernel_size=(1, 1), stride=(1, 1), bias=False)
          (action_p2_conv1): Conv1d(32, 32, kernel_size=(3,), stride=(1,), padding=(1,), bias=False)
          (action_p2_expand): Conv2d(32, 512, kernel_size=(1, 1), stride=(1, 1), bias=False)
          (action_p3_squeeze): Conv2d(512, 32, kernel_size=(1, 1), stride=(1, 1), bias=False)
          (action_p3_bn1): BatchNorm2d(32, eps=1e-05, momentum=0.1, affine=True, track_running_stats=True)
          (action_p3_conv1): Conv2d(32, 32, kernel_size=(3, 3), stride=(1, 1), padding=(1, 1), groups=32, bias=False)
          (action_p3_expand): Conv2d(32, 512, kernel_size=(1, 1), stride=(1, 1), bias=False)
        )
        (bn1): BatchNorm2d(128, eps=1e-05, momentum=0.1, affine=True, track_running_stats=True)
        (conv2): Conv2d(128, 128, kernel_size=(3, 3), stride=(1, 1), padding=(1, 1), bias=False)
        (bn2): BatchNorm2d(128, eps=1e-05, momentum=0.1, affine=True, track_running_stats=True)
        (conv3): Conv2d(128, 512, kernel_size=(1, 1), stride=(1, 1), bias=False)
        (bn3): BatchNorm2d(512, eps=1e-05, momentum=0.1, affine=True, track_running_stats=True)
        (relu): ReLU(inplace=True)
      )
      (3): Bottleneck(
        (conv1): Action(
          (net): Conv2d(512, 128, kernel_size=(1, 1), stride=(1, 1), bias=False)
          (avg_pool): AdaptiveAvgPool2d(output_size=1)
          (relu): ReLU(inplace=True)
          (sigmoid): Sigmoid()
          (action_shift): Conv1d(512, 512, kernel_size=(3,), stride=(1,), padding=(1,), groups=512, bias=False)
          (action_p1_conv1): Conv3d(1, 1, kernel_size=(3, 3, 3), stride=(1, 1, 1), padding=(1, 1, 1), bias=False)
          (action_p2_squeeze): Conv2d(512, 32, kernel_size=(1, 1), stride=(1, 1), bias=False)
          (action_p2_conv1): Conv1d(32, 32, kernel_size=(3,), stride=(1,), padding=(1,), bias=False)
          (action_p2_expand): Conv2d(32, 512, kernel_size=(1, 1), stride=(1, 1), bias=False)
          (action_p3_squeeze): Conv2d(512, 32, kernel_size=(1, 1), stride=(1, 1), bias=False)
          (action_p3_bn1): BatchNorm2d(32, eps=1e-05, momentum=0.1, affine=True, track_running_stats=True)
          (action_p3_conv1): Conv2d(32, 32, kernel_size=(3, 3), stride=(1, 1), padding=(1, 1), groups=32, bias=False)
          (action_p3_expand): Conv2d(32, 512, kernel_size=(1, 1), stride=(1, 1), bias=False)
        )
        (bn1): BatchNorm2d(128, eps=1e-05, momentum=0.1, affine=True, track_running_stats=True)
        (conv2): Conv2d(128, 128, kernel_size=(3, 3), stride=(1, 1), padding=(1, 1), bias=False)
        (bn2): BatchNorm2d(128, eps=1e-05, momentum=0.1, affine=True, track_running_stats=True)
        (conv3): Conv2d(128, 512, kernel_size=(1, 1), stride=(1, 1), bias=False)
        (bn3): BatchNorm2d(512, eps=1e-05, momentum=0.1, affine=True, track_running_stats=True)
        (relu): ReLU(inplace=True)
      )
    )
    (layer3): Sequential(
      (0): Bottleneck(
        (conv1): Action(
          (net): Conv2d(512, 256, kernel_size=(1, 1), stride=(1, 1), bias=False)
          (avg_pool): AdaptiveAvgPool2d(output_size=1)
          (relu): ReLU(inplace=True)
          (sigmoid): Sigmoid()
          (action_shift): Conv1d(512, 512, kernel_size=(3,), stride=(1,), padding=(1,), groups=512, bias=False)
          (action_p1_conv1): Conv3d(1, 1, kernel_size=(3, 3, 3), stride=(1, 1, 1), padding=(1, 1, 1), bias=False)
          (action_p2_squeeze): Conv2d(512, 32, kernel_size=(1, 1), stride=(1, 1), bias=False)
          (action_p2_conv1): Conv1d(32, 32, kernel_size=(3,), stride=(1,), padding=(1,), bias=False)
          (action_p2_expand): Conv2d(32, 512, kernel_size=(1, 1), stride=(1, 1), bias=False)
          (action_p3_squeeze): Conv2d(512, 32, kernel_size=(1, 1), stride=(1, 1), bias=False)
          (action_p3_bn1): BatchNorm2d(32, eps=1e-05, momentum=0.1, affine=True, track_running_stats=True)
          (action_p3_conv1): Conv2d(32, 32, kernel_size=(3, 3), stride=(1, 1), padding=(1, 1), groups=32, bias=False)
          (action_p3_expand): Conv2d(32, 512, kernel_size=(1, 1), stride=(1, 1), bias=False)
        )
        (bn1): BatchNorm2d(256, eps=1e-05, momentum=0.1, affine=True, track_running_stats=True)
        (conv2): Conv2d(256, 256, kernel_size=(3, 3), stride=(2, 2), padding=(1, 1), bias=False)
        (bn2): BatchNorm2d(256, eps=1e-05, momentum=0.1, affine=True, track_running_stats=True)
        (conv3): Conv2d(256, 1024, kernel_size=(1, 1), stride=(1, 1), bias=False)
        (bn3): BatchNorm2d(1024, eps=1e-05, momentum=0.1, affine=True, track_running_stats=True)
        (relu): ReLU(inplace=True)
        (downsample): Sequential(
          (0): Conv2d(512, 1024, kernel_size=(1, 1), stride=(2, 2), bias=False)
          (1): BatchNorm2d(1024, eps=1e-05, momentum=0.1, affine=True, track_running_stats=True)
        )
      )
      (1): Bottleneck(
        (conv1): Action(
          (net): Conv2d(1024, 256, kernel_size=(1, 1), stride=(1, 1), bias=False)
          (avg_pool): AdaptiveAvgPool2d(output_size=1)
          (relu): ReLU(inplace=True)
          (sigmoid): Sigmoid()
          (action_shift): Conv1d(1024, 1024, kernel_size=(3,), stride=(1,), padding=(1,), groups=1024, bias=False)
          (action_p1_conv1): Conv3d(1, 1, kernel_size=(3, 3, 3), stride=(1, 1, 1), padding=(1, 1, 1), bias=False)
          (action_p2_squeeze): Conv2d(1024, 64, kernel_size=(1, 1), stride=(1, 1), bias=False)
          (action_p2_conv1): Conv1d(64, 64, kernel_size=(3,), stride=(1,), padding=(1,), bias=False)
          (action_p2_expand): Conv2d(64, 1024, kernel_size=(1, 1), stride=(1, 1), bias=False)
          (action_p3_squeeze): Conv2d(1024, 64, kernel_size=(1, 1), stride=(1, 1), bias=False)
          (action_p3_bn1): BatchNorm2d(64, eps=1e-05, momentum=0.1, affine=True, track_running_stats=True)
          (action_p3_conv1): Conv2d(64, 64, kernel_size=(3, 3), stride=(1, 1), padding=(1, 1), groups=64, bias=False)
          (action_p3_expand): Conv2d(64, 1024, kernel_size=(1, 1), stride=(1, 1), bias=False)
        )
        (bn1): BatchNorm2d(256, eps=1e-05, momentum=0.1, affine=True, track_running_stats=True)
        (conv2): Conv2d(256, 256, kernel_size=(3, 3), stride=(1, 1), padding=(1, 1), bias=False)
        (bn2): BatchNorm2d(256, eps=1e-05, momentum=0.1, affine=True, track_running_stats=True)
        (conv3): Conv2d(256, 1024, kernel_size=(1, 1), stride=(1, 1), bias=False)
        (bn3): BatchNorm2d(1024, eps=1e-05, momentum=0.1, affine=True, track_running_stats=True)
        (relu): ReLU(inplace=True)
      )
      (2): Bottleneck(
        (conv1): Action(
          (net): Conv2d(1024, 256, kernel_size=(1, 1), stride=(1, 1), bias=False)
          (avg_pool): AdaptiveAvgPool2d(output_size=1)
          (relu): ReLU(inplace=True)
          (sigmoid): Sigmoid()
          (action_shift): Conv1d(1024, 1024, kernel_size=(3,), stride=(1,), padding=(1,), groups=1024, bias=False)
          (action_p1_conv1): Conv3d(1, 1, kernel_size=(3, 3, 3), stride=(1, 1, 1), padding=(1, 1, 1), bias=False)
          (action_p2_squeeze): Conv2d(1024, 64, kernel_size=(1, 1), stride=(1, 1), bias=False)
          (action_p2_conv1): Conv1d(64, 64, kernel_size=(3,), stride=(1,), padding=(1,), bias=False)
          (action_p2_expand): Conv2d(64, 1024, kernel_size=(1, 1), stride=(1, 1), bias=False)
          (action_p3_squeeze): Conv2d(1024, 64, kernel_size=(1, 1), stride=(1, 1), bias=False)
          (action_p3_bn1): BatchNorm2d(64, eps=1e-05, momentum=0.1, affine=True, track_running_stats=True)
          (action_p3_conv1): Conv2d(64, 64, kernel_size=(3, 3), stride=(1, 1), padding=(1, 1), groups=64, bias=False)
          (action_p3_expand): Conv2d(64, 1024, kernel_size=(1, 1), stride=(1, 1), bias=False)
        )
        (bn1): BatchNorm2d(256, eps=1e-05, momentum=0.1, affine=True, track_running_stats=True)
        (conv2): Conv2d(256, 256, kernel_size=(3, 3), stride=(1, 1), padding=(1, 1), bias=False)
        (bn2): BatchNorm2d(256, eps=1e-05, momentum=0.1, affine=True, track_running_stats=True)
        (conv3): Conv2d(256, 1024, kernel_size=(1, 1), stride=(1, 1), bias=False)
        (bn3): BatchNorm2d(1024, eps=1e-05, momentum=0.1, affine=True, track_running_stats=True)
        (relu): ReLU(inplace=True)
      )
      (3): Bottleneck(
        (conv1): Action(
          (net): Conv2d(1024, 256, kernel_size=(1, 1), stride=(1, 1), bias=False)
          (avg_pool): AdaptiveAvgPool2d(output_size=1)
          (relu): ReLU(inplace=True)
          (sigmoid): Sigmoid()
          (action_shift): Conv1d(1024, 1024, kernel_size=(3,), stride=(1,), padding=(1,), groups=1024, bias=False)
          (action_p1_conv1): Conv3d(1, 1, kernel_size=(3, 3, 3), stride=(1, 1, 1), padding=(1, 1, 1), bias=False)
          (action_p2_squeeze): Conv2d(1024, 64, kernel_size=(1, 1), stride=(1, 1), bias=False)
          (action_p2_conv1): Conv1d(64, 64, kernel_size=(3,), stride=(1,), padding=(1,), bias=False)
          (action_p2_expand): Conv2d(64, 1024, kernel_size=(1, 1), stride=(1, 1), bias=False)
          (action_p3_squeeze): Conv2d(1024, 64, kernel_size=(1, 1), stride=(1, 1), bias=False)
          (action_p3_bn1): BatchNorm2d(64, eps=1e-05, momentum=0.1, affine=True, track_running_stats=True)
          (action_p3_conv1): Conv2d(64, 64, kernel_size=(3, 3), stride=(1, 1), padding=(1, 1), groups=64, bias=False)
          (action_p3_expand): Conv2d(64, 1024, kernel_size=(1, 1), stride=(1, 1), bias=False)
        )
        (bn1): BatchNorm2d(256, eps=1e-05, momentum=0.1, affine=True, track_running_stats=True)
        (conv2): Conv2d(256, 256, kernel_size=(3, 3), stride=(1, 1), padding=(1, 1), bias=False)
        (bn2): BatchNorm2d(256, eps=1e-05, momentum=0.1, affine=True, track_running_stats=True)
        (conv3): Conv2d(256, 1024, kernel_size=(1, 1), stride=(1, 1), bias=False)
        (bn3): BatchNorm2d(1024, eps=1e-05, momentum=0.1, affine=True, track_running_stats=True)
        (relu): ReLU(inplace=True)
      )
      (4): Bottleneck(
        (conv1): Action(
          (net): Conv2d(1024, 256, kernel_size=(1, 1), stride=(1, 1), bias=False)
          (avg_pool): AdaptiveAvgPool2d(output_size=1)
          (relu): ReLU(inplace=True)
          (sigmoid): Sigmoid()
          (action_shift): Conv1d(1024, 1024, kernel_size=(3,), stride=(1,), padding=(1,), groups=1024, bias=False)
          (action_p1_conv1): Conv3d(1, 1, kernel_size=(3, 3, 3), stride=(1, 1, 1), padding=(1, 1, 1), bias=False)
          (action_p2_squeeze): Conv2d(1024, 64, kernel_size=(1, 1), stride=(1, 1), bias=False)
          (action_p2_conv1): Conv1d(64, 64, kernel_size=(3,), stride=(1,), padding=(1,), bias=False)
          (action_p2_expand): Conv2d(64, 1024, kernel_size=(1, 1), stride=(1, 1), bias=False)
          (action_p3_squeeze): Conv2d(1024, 64, kernel_size=(1, 1), stride=(1, 1), bias=False)
          (action_p3_bn1): BatchNorm2d(64, eps=1e-05, momentum=0.1, affine=True, track_running_stats=True)
          (action_p3_conv1): Conv2d(64, 64, kernel_size=(3, 3), stride=(1, 1), padding=(1, 1), groups=64, bias=False)
          (action_p3_expand): Conv2d(64, 1024, kernel_size=(1, 1), stride=(1, 1), bias=False)
        )
        (bn1): BatchNorm2d(256, eps=1e-05, momentum=0.1, affine=True, track_running_stats=True)
        (conv2): Conv2d(256, 256, kernel_size=(3, 3), stride=(1, 1), padding=(1, 1), bias=False)
        (bn2): BatchNorm2d(256, eps=1e-05, momentum=0.1, affine=True, track_running_stats=True)
        (conv3): Conv2d(256, 1024, kernel_size=(1, 1), stride=(1, 1), bias=False)
        (bn3): BatchNorm2d(1024, eps=1e-05, momentum=0.1, affine=True, track_running_stats=True)
        (relu): ReLU(inplace=True)
      )
      (5): Bottleneck(
        (conv1): Action(
          (net): Conv2d(1024, 256, kernel_size=(1, 1), stride=(1, 1), bias=False)
          (avg_pool): AdaptiveAvgPool2d(output_size=1)
          (relu): ReLU(inplace=True)
          (sigmoid): Sigmoid()
          (action_shift): Conv1d(1024, 1024, kernel_size=(3,), stride=(1,), padding=(1,), groups=1024, bias=False)
          (action_p1_conv1): Conv3d(1, 1, kernel_size=(3, 3, 3), stride=(1, 1, 1), padding=(1, 1, 1), bias=False)
          (action_p2_squeeze): Conv2d(1024, 64, kernel_size=(1, 1), stride=(1, 1), bias=False)
          (action_p2_conv1): Conv1d(64, 64, kernel_size=(3,), stride=(1,), padding=(1,), bias=False)
          (action_p2_expand): Conv2d(64, 1024, kernel_size=(1, 1), stride=(1, 1), bias=False)
          (action_p3_squeeze): Conv2d(1024, 64, kernel_size=(1, 1), stride=(1, 1), bias=False)
          (action_p3_bn1): BatchNorm2d(64, eps=1e-05, momentum=0.1, affine=True, track_running_stats=True)
          (action_p3_conv1): Conv2d(64, 64, kernel_size=(3, 3), stride=(1, 1), padding=(1, 1), groups=64, bias=False)
          (action_p3_expand): Conv2d(64, 1024, kernel_size=(1, 1), stride=(1, 1), bias=False)
        )
        (bn1): BatchNorm2d(256, eps=1e-05, momentum=0.1, affine=True, track_running_stats=True)
        (conv2): Conv2d(256, 256, kernel_size=(3, 3), stride=(1, 1), padding=(1, 1), bias=False)
        (bn2): BatchNorm2d(256, eps=1e-05, momentum=0.1, affine=True, track_running_stats=True)
        (conv3): Conv2d(256, 1024, kernel_size=(1, 1), stride=(1, 1), bias=False)
        (bn3): BatchNorm2d(1024, eps=1e-05, momentum=0.1, affine=True, track_running_stats=True)
        (relu): ReLU(inplace=True)
      )
    )
    (layer4): Sequential(
      (0): Bottleneck(
        (conv1): Action(
          (net): Conv2d(1024, 512, kernel_size=(1, 1), stride=(1, 1), bias=False)
          (avg_pool): AdaptiveAvgPool2d(output_size=1)
          (relu): ReLU(inplace=True)
          (sigmoid): Sigmoid()
          (action_shift): Conv1d(1024, 1024, kernel_size=(3,), stride=(1,), padding=(1,), groups=1024, bias=False)
          (action_p1_conv1): Conv3d(1, 1, kernel_size=(3, 3, 3), stride=(1, 1, 1), padding=(1, 1, 1), bias=False)
          (action_p2_squeeze): Conv2d(1024, 64, kernel_size=(1, 1), stride=(1, 1), bias=False)
          (action_p2_conv1): Conv1d(64, 64, kernel_size=(3,), stride=(1,), padding=(1,), bias=False)
          (action_p2_expand): Conv2d(64, 1024, kernel_size=(1, 1), stride=(1, 1), bias=False)
          (action_p3_squeeze): Conv2d(1024, 64, kernel_size=(1, 1), stride=(1, 1), bias=False)
          (action_p3_bn1): BatchNorm2d(64, eps=1e-05, momentum=0.1, affine=True, track_running_stats=True)
          (action_p3_conv1): Conv2d(64, 64, kernel_size=(3, 3), stride=(1, 1), padding=(1, 1), groups=64, bias=False)
          (action_p3_expand): Conv2d(64, 1024, kernel_size=(1, 1), stride=(1, 1), bias=False)
        )
        (bn1): BatchNorm2d(512, eps=1e-05, momentum=0.1, affine=True, track_running_stats=True)
        (conv2): Conv2d(512, 512, kernel_size=(3, 3), stride=(2, 2), padding=(1, 1), bias=False)
        (bn2): BatchNorm2d(512, eps=1e-05, momentum=0.1, affine=True, track_running_stats=True)
        (conv3): Conv2d(512, 2048, kernel_size=(1, 1), stride=(1, 1), bias=False)
        (bn3): BatchNorm2d(2048, eps=1e-05, momentum=0.1, affine=True, track_running_stats=True)
        (relu): ReLU(inplace=True)
        (downsample): Sequential(
          (0): Conv2d(1024, 2048, kernel_size=(1, 1), stride=(2, 2), bias=False)
          (1): BatchNorm2d(2048, eps=1e-05, momentum=0.1, affine=True, track_running_stats=True)
        )
      )
      (1): Bottleneck(
        (conv1): Action(
          (net): Conv2d(2048, 512, kernel_size=(1, 1), stride=(1, 1), bias=False)
          (avg_pool): AdaptiveAvgPool2d(output_size=1)
          (relu): ReLU(inplace=True)
          (sigmoid): Sigmoid()
          (action_shift): Conv1d(2048, 2048, kernel_size=(3,), stride=(1,), padding=(1,), groups=2048, bias=False)
          (action_p1_conv1): Conv3d(1, 1, kernel_size=(3, 3, 3), stride=(1, 1, 1), padding=(1, 1, 1), bias=False)
          (action_p2_squeeze): Conv2d(2048, 128, kernel_size=(1, 1), stride=(1, 1), bias=False)
          (action_p2_conv1): Conv1d(128, 128, kernel_size=(3,), stride=(1,), padding=(1,), bias=False)
          (action_p2_expand): Conv2d(128, 2048, kernel_size=(1, 1), stride=(1, 1), bias=False)
          (action_p3_squeeze): Conv2d(2048, 128, kernel_size=(1, 1), stride=(1, 1), bias=False)
          (action_p3_bn1): BatchNorm2d(128, eps=1e-05, momentum=0.1, affine=True, track_running_stats=True)
          (action_p3_conv1): Conv2d(128, 128, kernel_size=(3, 3), stride=(1, 1), padding=(1, 1), groups=128, bias=False)
          (action_p3_expand): Conv2d(128, 2048, kernel_size=(1, 1), stride=(1, 1), bias=False)
        )
        (bn1): BatchNorm2d(512, eps=1e-05, momentum=0.1, affine=True, track_running_stats=True)
        (conv2): Conv2d(512, 512, kernel_size=(3, 3), stride=(1, 1), padding=(1, 1), bias=False)
        (bn2): BatchNorm2d(512, eps=1e-05, momentum=0.1, affine=True, track_running_stats=True)
        (conv3): Conv2d(512, 2048, kernel_size=(1, 1), stride=(1, 1), bias=False)
        (bn3): BatchNorm2d(2048, eps=1e-05, momentum=0.1, affine=True, track_running_stats=True)
        (relu): ReLU(inplace=True)
      )
      (2): Bottleneck(
        (conv1): Action(
          (net): Conv2d(2048, 512, kernel_size=(1, 1), stride=(1, 1), bias=False)
          (avg_pool): AdaptiveAvgPool2d(output_size=1)
          (relu): ReLU(inplace=True)
          (sigmoid): Sigmoid()
          (action_shift): Conv1d(2048, 2048, kernel_size=(3,), stride=(1,), padding=(1,), groups=2048, bias=False)
          (action_p1_conv1): Conv3d(1, 1, kernel_size=(3, 3, 3), stride=(1, 1, 1), padding=(1, 1, 1), bias=False)
          (action_p2_squeeze): Conv2d(2048, 128, kernel_size=(1, 1), stride=(1, 1), bias=False)
          (action_p2_conv1): Conv1d(128, 128, kernel_size=(3,), stride=(1,), padding=(1,), bias=False)
          (action_p2_expand): Conv2d(128, 2048, kernel_size=(1, 1), stride=(1, 1), bias=False)
          (action_p3_squeeze): Conv2d(2048, 128, kernel_size=(1, 1), stride=(1, 1), bias=False)
          (action_p3_bn1): BatchNorm2d(128, eps=1e-05, momentum=0.1, affine=True, track_running_stats=True)
          (action_p3_conv1): Conv2d(128, 128, kernel_size=(3, 3), stride=(1, 1), padding=(1, 1), groups=128, bias=False)
          (action_p3_expand): Conv2d(128, 2048, kernel_size=(1, 1), stride=(1, 1), bias=False)
        )
        (bn1): BatchNorm2d(512, eps=1e-05, momentum=0.1, affine=True, track_running_stats=True)
        (conv2): Conv2d(512, 512, kernel_size=(3, 3), stride=(1, 1), padding=(1, 1), bias=False)
        (bn2): BatchNorm2d(512, eps=1e-05, momentum=0.1, affine=True, track_running_stats=True)
        (conv3): Conv2d(512, 2048, kernel_size=(1, 1), stride=(1, 1), bias=False)
        (bn3): BatchNorm2d(2048, eps=1e-05, momentum=0.1, affine=True, track_running_stats=True)
        (relu): ReLU(inplace=True)
      )
    )
    (avgpool): AdaptiveAvgPool2d(output_size=(1, 1))
    (fc): Linear(in_features=2048, out_features=1024, bias=True)
  )
  (transformer): Transformer(
    (resblocks): Sequential(
      (0): ResidualAttentionBlock(
        (attn): MultiheadAttention(
          (out_proj): NonDynamicallyQuantizableLinear(in_features=512, out_features=512, bias=True)
        )
        (ln_1): LayerNorm((512,), eps=1e-05, elementwise_affine=True)
        (drop_path): Identity()
        (mlp): Sequential(
          (c_fc): Linear(in_features=512, out_features=2048, bias=True)
          (gelu): QuickGELU()
          (c_proj): Linear(in_features=2048, out_features=512, bias=True)
        )
        (ln_2): LayerNorm((512,), eps=1e-05, elementwise_affine=True)
      )
      (1): ResidualAttentionBlock(
        (attn): MultiheadAttention(
          (out_proj): NonDynamicallyQuantizableLinear(in_features=512, out_features=512, bias=True)
        )
        (ln_1): LayerNorm((512,), eps=1e-05, elementwise_affine=True)
        (drop_path): Identity()
        (mlp): Sequential(
          (c_fc): Linear(in_features=512, out_features=2048, bias=True)
          (gelu): QuickGELU()
          (c_proj): Linear(in_features=2048, out_features=512, bias=True)
        )
        (ln_2): LayerNorm((512,), eps=1e-05, elementwise_affine=True)
      )
      (2): ResidualAttentionBlock(
        (attn): MultiheadAttention(
          (out_proj): NonDynamicallyQuantizableLinear(in_features=512, out_features=512, bias=True)
        )
        (ln_1): LayerNorm((512,), eps=1e-05, elementwise_affine=True)
        (drop_path): Identity()
        (mlp): Sequential(
          (c_fc): Linear(in_features=512, out_features=2048, bias=True)
          (gelu): QuickGELU()
          (c_proj): Linear(in_features=2048, out_features=512, bias=True)
        )
        (ln_2): LayerNorm((512,), eps=1e-05, elementwise_affine=True)
      )
      (3): ResidualAttentionBlock(
        (attn): MultiheadAttention(
          (out_proj): NonDynamicallyQuantizableLinear(in_features=512, out_features=512, bias=True)
        )
        (ln_1): LayerNorm((512,), eps=1e-05, elementwise_affine=True)
        (drop_path): Identity()
        (mlp): Sequential(
          (c_fc): Linear(in_features=512, out_features=2048, bias=True)
          (gelu): QuickGELU()
          (c_proj): Linear(in_features=2048, out_features=512, bias=True)
        )
        (ln_2): LayerNorm((512,), eps=1e-05, elementwise_affine=True)
      )
      (4): ResidualAttentionBlock(
        (attn): MultiheadAttention(
          (out_proj): NonDynamicallyQuantizableLinear(in_features=512, out_features=512, bias=True)
        )
        (ln_1): LayerNorm((512,), eps=1e-05, elementwise_affine=True)
        (drop_path): Identity()
        (mlp): Sequential(
          (c_fc): Linear(in_features=512, out_features=2048, bias=True)
          (gelu): QuickGELU()
          (c_proj): Linear(in_features=2048, out_features=512, bias=True)
        )
        (ln_2): LayerNorm((512,), eps=1e-05, elementwise_affine=True)
      )
      (5): ResidualAttentionBlock(
        (attn): MultiheadAttention(
          (out_proj): NonDynamicallyQuantizableLinear(in_features=512, out_features=512, bias=True)
        )
        (ln_1): LayerNorm((512,), eps=1e-05, elementwise_affine=True)
        (drop_path): Identity()
        (mlp): Sequential(
          (c_fc): Linear(in_features=512, out_features=2048, bias=True)
          (gelu): QuickGELU()
          (c_proj): Linear(in_features=2048, out_features=512, bias=True)
        )
        (ln_2): LayerNorm((512,), eps=1e-05, elementwise_affine=True)
      )
      (6): ResidualAttentionBlock(
        (attn): MultiheadAttention(
          (out_proj): NonDynamicallyQuantizableLinear(in_features=512, out_features=512, bias=True)
        )
        (ln_1): LayerNorm((512,), eps=1e-05, elementwise_affine=True)
        (drop_path): Identity()
        (mlp): Sequential(
          (c_fc): Linear(in_features=512, out_features=2048, bias=True)
          (gelu): QuickGELU()
          (c_proj): Linear(in_features=2048, out_features=512, bias=True)
        )
        (ln_2): LayerNorm((512,), eps=1e-05, elementwise_affine=True)
      )
      (7): ResidualAttentionBlock(
        (attn): MultiheadAttention(
          (out_proj): NonDynamicallyQuantizableLinear(in_features=512, out_features=512, bias=True)
        )
        (ln_1): LayerNorm((512,), eps=1e-05, elementwise_affine=True)
        (drop_path): Identity()
        (mlp): Sequential(
          (c_fc): Linear(in_features=512, out_features=2048, bias=True)
          (gelu): QuickGELU()
          (c_proj): Linear(in_features=2048, out_features=512, bias=True)
        )
        (ln_2): LayerNorm((512,), eps=1e-05, elementwise_affine=True)
      )
      (8): ResidualAttentionBlock(
        (attn): MultiheadAttention(
          (out_proj): NonDynamicallyQuantizableLinear(in_features=512, out_features=512, bias=True)
        )
        (ln_1): LayerNorm((512,), eps=1e-05, elementwise_affine=True)
        (drop_path): Identity()
        (mlp): Sequential(
          (c_fc): Linear(in_features=512, out_features=2048, bias=True)
          (gelu): QuickGELU()
          (c_proj): Linear(in_features=2048, out_features=512, bias=True)
        )
        (ln_2): LayerNorm((512,), eps=1e-05, elementwise_affine=True)
      )
      (9): ResidualAttentionBlock(
        (attn): MultiheadAttention(
          (out_proj): NonDynamicallyQuantizableLinear(in_features=512, out_features=512, bias=True)
        )
        (ln_1): LayerNorm((512,), eps=1e-05, elementwise_affine=True)
        (drop_path): Identity()
        (mlp): Sequential(
          (c_fc): Linear(in_features=512, out_features=2048, bias=True)
          (gelu): QuickGELU()
          (c_proj): Linear(in_features=2048, out_features=512, bias=True)
        )
        (ln_2): LayerNorm((512,), eps=1e-05, elementwise_affine=True)
      )
      (10): ResidualAttentionBlock(
        (attn): MultiheadAttention(
          (out_proj): NonDynamicallyQuantizableLinear(in_features=512, out_features=512, bias=True)
        )
        (ln_1): LayerNorm((512,), eps=1e-05, elementwise_affine=True)
        (drop_path): Identity()
        (mlp): Sequential(
          (c_fc): Linear(in_features=512, out_features=2048, bias=True)
          (gelu): QuickGELU()
          (c_proj): Linear(in_features=2048, out_features=512, bias=True)
        )
        (ln_2): LayerNorm((512,), eps=1e-05, elementwise_affine=True)
      )
      (11): ResidualAttentionBlock(
        (attn): MultiheadAttention(
          (out_proj): NonDynamicallyQuantizableLinear(in_features=512, out_features=512, bias=True)
        )
        (ln_1): LayerNorm((512,), eps=1e-05, elementwise_affine=True)
        (drop_path): Identity()
        (mlp): Sequential(
          (c_fc): Linear(in_features=512, out_features=2048, bias=True)
          (gelu): QuickGELU()
          (c_proj): Linear(in_features=2048, out_features=512, bias=True)
        )
        (ln_2): LayerNorm((512,), eps=1e-05, elementwise_affine=True)
      )
    )
  )
  (token_embedding): Embedding(49408, 512)
  (ln_final): LayerNorm((512,), eps=1e-05, elementwise_affine=True)
  (dropout): Dropout(p=0.0, inplace=False)
)
fusion_model=fusion_model=fusion_model=fusion_model=fusion_model=fusion_model=fusion_model=fusion_model=fusion_model=fusion_model=fusion_model=fusion_model=fusion_model=fusion_model=fusion_model=fusion_model=fusion_model=fusion_model=fusion_model=fusion_model=
DataParallel(
  (module): visual_prompt(
    (frame_position_embeddings): Embedding(77, 1024)
    (transformer): TemporalTransformer(
      (resblocks): Sequential(
        (0): ResidualAttentionBlock(
          (attn): MultiheadAttention(
            (out_proj): NonDynamicallyQuantizableLinear(in_features=1024, out_features=1024, bias=True)
          )
          (ln_1): LayerNorm()
          (mlp): Sequential(
            (c_fc): Linear(in_features=1024, out_features=4096, bias=True)
            (gelu): QuickGELU()
            (c_proj): Linear(in_features=4096, out_features=1024, bias=True)
          )
          (ln_2): LayerNorm()
        )
        (1): ResidualAttentionBlock(
          (attn): MultiheadAttention(
            (out_proj): NonDynamicallyQuantizableLinear(in_features=1024, out_features=1024, bias=True)
          )
          (ln_1): LayerNorm()
          (mlp): Sequential(
            (c_fc): Linear(in_features=1024, out_features=4096, bias=True)
            (gelu): QuickGELU()
            (c_proj): Linear(in_features=4096, out_features=1024, bias=True)
          )
          (ln_2): LayerNorm()
        )
        (2): ResidualAttentionBlock(
          (attn): MultiheadAttention(
            (out_proj): NonDynamicallyQuantizableLinear(in_features=1024, out_features=1024, bias=True)
          )
          (ln_1): LayerNorm()
          (mlp): Sequential(
            (c_fc): Linear(in_features=1024, out_features=4096, bias=True)
            (gelu): QuickGELU()
            (c_proj): Linear(in_features=4096, out_features=1024, bias=True)
          )
          (ln_2): LayerNorm()
        )
        (3): ResidualAttentionBlock(
          (attn): MultiheadAttention(
            (out_proj): NonDynamicallyQuantizableLinear(in_features=1024, out_features=1024, bias=True)
          )
          (ln_1): LayerNorm()
          (mlp): Sequential(
            (c_fc): Linear(in_features=1024, out_features=4096, bias=True)
            (gelu): QuickGELU()
            (c_proj): Linear(in_features=4096, out_features=1024, bias=True)
          )
          (ln_2): LayerNorm()
        )
        (4): ResidualAttentionBlock(
          (attn): MultiheadAttention(
            (out_proj): NonDynamicallyQuantizableLinear(in_features=1024, out_features=1024, bias=True)
          )
          (ln_1): LayerNorm()
          (mlp): Sequential(
            (c_fc): Linear(in_features=1024, out_features=4096, bias=True)
            (gelu): QuickGELU()
            (c_proj): Linear(in_features=4096, out_features=1024, bias=True)
          )
          (ln_2): LayerNorm()
        )
        (5): ResidualAttentionBlock(
          (attn): MultiheadAttention(
            (out_proj): NonDynamicallyQuantizableLinear(in_features=1024, out_features=1024, bias=True)
          )
          (ln_1): LayerNorm()
          (mlp): Sequential(
            (c_fc): Linear(in_features=1024, out_features=4096, bias=True)
            (gelu): QuickGELU()
            (c_proj): Linear(in_features=4096, out_features=1024, bias=True)
          )
          (ln_2): LayerNorm()
        )
      )
    )
  )
)
random_shift:DotMap()
/home/10501001/anaconda3/envs/ACTION-CLIP/lib/python3.9/site-packages/torch/utils/data/dataloader.py:478: UserWarning: This DataLoader will create 16 worker processes in total. Our suggested max number of worker in current system is 8, which is smaller than what this DataLoader is going to create. Please be aware that excessive worker creation might get DataLoader running slow or even freeze, lower the worker number to avoid potential slowness/freeze if necessary.
…
